model/model.pth (torch, 17216 bytes, 4 tensors)

linear1.weight f4 [256, 11]
0.53366894 0.65804213 -0.22030085 0.096427806 0.15593451 0.28592366 0.10202643 -0.024017902
-0.15070489 -0.18050158 -0.052835803 0.009494655 0.29934493 0.78060067 0.020180514 -0.22003141
0.1252485 -0.08431468 -0.12735024 0.15339726 0.054251965 0.11875948 -0.5332028 0.28441203
0.1607663 -0.15877376 0.07499148 0.06417669 0.1860476 0.24322282 -0.088479735 0.15188998
0.21766217 0.6517171 -0.017343251 -0.09775387 0.12219593 0.14948721 0.08849367 -0.15820758
-0.026295003 -0.08250004 -0.3053257 0.24227521 -0.18745652 0.13480891 -0.27898866 -0.08184961
0.26145163 -0.2646522 -0.10336996 -0.28839812 0.34018195 0.11698493 -0.032299984 -0.46905982
0.47964892 0.27220953 0.16508731 -0.049328376 0.28883994 -0.3040941 -0.10624566 0.22135794
-0.14255904 -0.30210415 0.596663 0.58869034 -0.49282536 0.14183408 0.016755192 -0.22314316
0.24296618 -0.1291893 -0.12957388 0.17886712 0.13980193 0.09364 0.505554 -0.06939142
0.016625082 0.14903769 -0.0537945 0.021756202 0.0714628 0.039365947 -0.0026958217 -0.04979073
-0.34970644 0.68490857 -0.33054453 0.18177225 0.25230742 0.20305766 0.00017220172 0.20264386
0.22790813 0.043077547 -0.09415812 0.19450094 -0.11647807 -0.22467954 0.0092083225 -0.1667613
-0.15261537 -0.0075273747 -0.22364654 -0.18734089 -0.11879848 -0.28890496 0.48584655 0.4202234
0.19436008 0.015902268 -0.086491875 0.16235454 0.21692206 -0.070569076 0.03223898 -0.029497316
0.23305115 0.38164356 0.30758446 -0.21691206 -0.0990483 0.043623712 0.058773108 -0.25199398
-0.05812258 -0.06641669 0.0820551 0.23858145 0.32860273 0.09502368 0.6023602 -0.0844203
0.006317083 0.22820705 0.18363121 -0.14126588 -0.1500415 0.0784246 0.16252823 -0.3573874
-0.14132513 0.6133349 0.047443673 0.24578024 -0.03781056 -0.044724103 -0.024566432 0.12585361
-0.014203555 0.12864898 0.023942042 -0.24766496 0.10077851 -0.16893375 -0.08738877 -0.21203391
-0.095111266 0.03183105 -0.025564957 -0.051872913 -0.22673427 -0.19380522 -0.27170584 0.78652084
0.19112785 -0.22526512 -0.10814482 -0.03700651 -0.028710647 0.05883995 0.17836659 -0.106800124
-0.012063584 0.58995116 -0.56274754 0.22694537 0.09352382 0.14090312 0.15037766 0.010882634
0.24988542 0.16276029 0.1340171 0.17833701 0.04117502 0.242574 -0.27610672 0.056696367
-0.11895459 -0.36651975 0.2821543 0.06591603 0.23372017 -0.37598926 -0.26420498 -0.3024235
-0.08311803 -0.27678674 -0.11601484 0.2241402 -0.12767497 -0.16409068 -0.24832352 0.06073176
-0.2883402 0.17763115 0.34999916 0.047156576 -0.2444824 0.20909385 0.07740697 -0.15988585
0.20155865 -0.3755537 -0.28251785 0.07912179 0.37942234 -0.30258328 -0.055898607 0.09745236
-0.055436213 0.282203 -0.28848177 0.09506543 0.16424042 -0.08319673 0.05694508 0.5050835
-0.24243174 -0.1519251 -0.37410307 0.124278635 0.0710543 -0.11319712 0.113747865 -0.29280576
-0.3775595 0.08668501 0.45079467 -0.5461379 0.38314173 -0.030053461 -0.056220524 -0.13170789
0.027949428 0.15097253 0.16584763 0.08772312 0.20147718 -0.22917317 0.30592665 -0.11189815
00000000: 879e 083f 7375 283f 8c96 61be f17b c53d
00000010: 4cad 1f3e 9664 923e 3cf3 d03d 31c1 c4bc
00000020: 6252 1abe 68d5 38be 5b6a 58bd 788f 1b3c
00000030: bd43 993e 72d5 473f 9b51 a53c ea4f 61be
00000040: 2541 003e 2dad acbd 1a68 02be 2c14 1d3e
00000050: 4f37 5e3d 2c38 f33d fb7f 08bf 749e 913e
00000060: ec9f 243e 9795 22be 2295 993d 126f 833d
00000070: 4383 3e3e 670f 793e dd34 b5bd 0c89 1b3e
00000080: d5e2 5e3e efd6 263f 6f13 8ebc 2e33 c8bd
00000090: dc41 fa3d 2d13 193e 2b3c b53d 2b01 22be
000000a0: 9e68 d7bc c8f5 a8bd a653 9cbe fe16 783e
000000b0: 9af4 3fbe 590b 0a3e 9ad7 8ebe c5a0 a7bd
000000c0: fddc 853e 7e80 87be a1b3 d3bd eba8 93be
000000d0: 542c ae3e cc95 ef3d fd4c 04bd 9c28 f0be
000000e0: 8b94 f53e 0c5f 8b3e a60c 293e 8d0c 4abd
000000f0: d4e2 933e 39b2 9bbe 5397 d9bd a8ab 623e
00000100: fffa 11be 65ad 9abe e8be 183f 69b4 163f
00000110: 9b53 fcbe f43c 113e 2f42 893c a47f 64be
00000120: 20cc 783e 334a 04be 04af 04be f128 373e
00000130: 3d28 0f3e 54c6 bf3d fd6b 013f 171d 8ebd
00000140: 5331 883c 569d 183e 9f57 5cbd 103a b23c
00000150: 175b 923d 303e 213d 62ac 30bb 5df1 4bbd
00000160: b90c b3be 2b56 2f3f 223d a9be 8122 3a3e
00000170: 702e 813e 59ee 4f3e 0c91 3439 df81 4f3e
00000180: c060 693e 1572 303d f9d5 c0bd 412b 473e
00000190: 0e8c eebd 6512 66be 81de 163c 79c3 2abe
000001a0: 3447 1cbe 32a8 f6bb 9903 65be 4ad6 3fbe
000001b0: 9e4c f3bd 5aeb 93be e1c0 f83e 8627 d73e
000001c0: 5406 473e 7945 823c a722 b1bd 4540 263e
000001d0: d120 5e3e 8586 90bd 050d 043d 5ba4 f1bc
000001e0: f6a4 6e3e c966 c33e b67b 9d3e 321e 5ebe
000001f0: d6d9 cabd c7ae 323d 12bc 703d 5b05 81be
00000200: f111 6ebd 7905 88bd 810c a83d b24e 743e
00000210: 9e3e a83e c69b c23d 4734 1a3f 8de4 acbd
00000220: 88ff ce3b 1caf 693e d209 3c3e 01a8 10be
00000230: 7ba4 19be 149d a03d cd6d 263e 7bfb b6be
00000240: 89b7 10be 8403 1d3f 4c54 423d d1ad 7b3e
00000250: 3fdf 1abd 9f30 37bd 8b3f c9bc c5df 003e
00000260: 07b6 68bc 8fbc 033e 1a22 c43c e29b 7dbe
00000270: f764 ce3d f8fc 2cbe e2f8 b2bd 6b1f 59be
00000280: b2c9 c2bd 4661 023d 9a6d d1bc b178 54bd
00000290: 072d 68be e074 46be 071d 8bbe 6e59 493f
000002a0: 05b7 433e e6ab 66be 087b ddbd 2394 17bd
000002b0: 9732 ebbc 2902 713d bba5 363e 06ba dabd
000002c0: 57a6 45bc 0a07 173f 3910 10bf 5e64 683e
000002d0: 6b89 bf3d e848 103e 9afc 193e 134d 323c
000002e0: f7e1 7f3e a2aa 263e c73b 093e fa9d 363e
000002f0: 23a7 283d 5265 783e dc5d 8dbe 733a 683d
00000300: 779e f3bd 7aa8 bbbe 8776 903e fcfe 863d
00000310: 5754 6f3e aa81 c0be e045 87be 41d7 9abe
00000320: c939 aabd feb6 8dbe 3099 edbd 0285 653e
00000330: 3abd 02be 6307 28be 8548 7ebe dec1 783d
00000340: 54a1 93be f1e4 353e 1733 b33e 4127 413d
00000350: 9859 7abe b31c 563e 8c87 9e3d 1eb9 23be
00000360: 6465 4e3e 9348 c0be 2ea6 90be 9b0a a23d
00000370: a543 c23e 32ec 9abe f0f5 64bd 1a95 c73d
00000380: 1511 63bd e97c 903e e2b3 93be aab1 c23d
00000390: a42e 283e 0c63 aabd 3f3f 693d 274d 013f
000003a0: 0740 78be 4192 1bbe 708a bfbe cc85 fe3d
000003b0: eb84 913d e4d3 e7bd a4f4 e83d a3ea 95be
000003c0: 7b4f c1be e987 b13d 8fce e63e b2cf 0bbf
000003d0: 272b c43e ad32 f6bc 7e47 66bd 6fde 06be
000003e0: 33f6 e43c 8b98 1a3e f6d3 293e 2ea8 b33d
000003f0: 0950 4e3e 5fac 6abe 6ba2 9c3e db2a e5bd

linear1.bias f4 [256]
-0.102783866 0.12507573 0.24620758 -0.0883155 -0.18112133 0.19545203 0.11251289 -0.029994793
-0.12601614 -0.028150868 0.06882566 -0.01065298 -0.09323272 0.07715528 0.0784379 0.18719386
0.00074010744 -0.14815207 0.109496176 0.03804788 -0.22480205 0.06971551 0.13605355 -0.12209598
-0.2741485 0.19691522 -0.22962974 -0.101409376 -0.343669 0.082874544 -0.0050787665 0.03873895
0.022812232 -0.12943678 0.27748057 -0.14063814 0.08030879 -0.105226666 0.0952884 -0.17450735
0.09203295 -0.025160447 -0.12480333 -0.12150871 -0.26860866 0.10002629 -0.14704016 -0.22844468
-0.31226307 -0.05773675 -0.051701173 0.049721565 0.123174995 0.0034720686 0.20255995 -0.04207302
-0.029145136 -0.07245173 0.17353658 -0.045423053 0.3025386 0.21506453 0.04463228 -0.12294859
-0.1414419 -0.03653636 -0.18051735 -0.10201255 0.11006857 0.024576264 -0.020633988 -0.10118333
-0.3845884 0.025710147 -0.044449065 0.009324798 -0.059441812 -0.016610458 -0.28694317 0.06074708
-0.02533122 0.1479533 0.04516692 -0.029026808 -0.024606038 -0.14631629 -0.025831414 -0.20049715
-0.0046206214 -0.25237325 0.32858813 0.18616688 -0.02064965 0.08291766 -0.021133859 0.012545788
0.19435441 -0.13923895 -0.05033669 0.29753926 -0.051276974 -0.13543701 -0.13756761 -0.047886673
0.08533508 0.30744 -0.25237122 -0.065731615 -0.10959823 0.055576812 -0.08170813 0.26998508
0.09569867 0.19211188 -0.054660648 -0.2389114 -0.3472542 0.20584555 -0.03948177 -0.21037382
-0.29969049 -0.14192407 -0.27385578 -0.086666964 -0.093205586 0.105648786 -0.07484583 0.093685895
-0.07092214 -0.15516074 0.14958012 -0.18894209 -0.26778883 -0.2138804 0.0740997 0.2622745
-0.18423896 0.019061474 0.14771834 0.084642395 0.027441049 0.21029824 -0.13694333 0.024074703
-0.0858015 -0.081778586 -0.25009972 -0.0075035407 0.06597372 0.13410299 0.10193888 0.046919834
0.19964178 0.15089333 0.043813832 -0.279421 -0.23247091 -0.07842306 -0.17899223 -0.2128215
0.09939175 0.019241644 -0.058242794 -0.29302096 0.019669572 -0.034984626 -0.23346098 0.13639241
0.22392577 0.029184511 0.34686264 -0.3444917 -0.36745718 -0.0025057625 -0.122295424 -0.15839584
0.01940305 0.13423966 -0.07843123 0.040346958 -0.25821832 0.024594534 -0.14549269 -0.077899024
-0.24249558 -0.2675381 -0.03619722 -0.053937234 0.016827926 0.15676756 -0.1233185 0.103979886
0.01034515 -0.2957294 -0.20560668 -0.30447033 -0.25680065 -0.11326453 0.10625509 0.2193307
0.1877258 0.0033486956 -0.11902036 0.15681316 -0.10186174 -0.08234328 -0.06821315 -0.09011806
-0.04413085 0.028843135 -0.25856134 -0.098178595 -0.14165972 0.012119616 -0.20649898 -0.08559733
0.024342831 0.094150096 -0.09812704 -0.32059658 -0.21970609 -0.30640408 -0.14199936 0.15657292
0.03153016 0.055173364 -0.18996449 -0.26107264 -0.051054925 -0.15414163 -0.060613845 0.073588446
0.037629277 0.22381917 -0.22544695 -0.028274622 0.078163974 -0.053360123 -0.10050315 -0.14715889
-0.2581101 -0.16676404 0.18092607 -0.045747887 -0.34650666 -0.033375192 0.07273523 -0.06424898
0.32339892 -0.13718659 0.0014404776 -0.15627757 -0.07819334 -0.21495813 -0.119064465 0.17804784
00000000: 5980 d2bd da13 003e d71d 7c3e c2de b4bd
00000010: df77 39be 9424 483e 286d e63d a4b7 f5bc
00000020: 600a 01be a69c e6bc 78f4 8c3d d689 2ebc
00000030: ccf0 bebd 9603 9e3d 0da4 a03d bfaf 3f3e
00000040: c503 423a 2db5 17be 883f e03d 18d8 1b3d
00000050: 8232 66be 01c7 8e3d 9f51 0b3e 750d fabd
00000060: 315d 8cbe 25a4 493e 0f24 6bbe b8af cfbd
00000070: 62f5 afbe 21ba a93d c86b a6bb bcac 1e3d
00000080: b8e0 ba3c 138b 04be ef11 8e3e 7203 10be
00000090: ef78 a43d 1481 d7bd 9126 c33d 0eb2 32be
000000a0: c57b bc3d 481d cebc e398 ffbd 8fd9 f8bd
000000b0: 1387 89be 95da cc3d b291 16be 67ed 69be
000000c0: f2e0 9fbe 5f7d 6cbd 9cc4 53bd d7a8 4b3d
000000d0: 2c43 fc3d a58b 633b e06b 4f3e c254 2cbd
000000e0: c8c1 eebc 9361 94bd 93b3 313e 860d 3abd
000000f0: 57e6 9a3e e039 5c3e 56d0 363d 78cc fbbd
00000100: 25d6 10be 26a7 15bd 8ad9 38be f5eb d0bd
00000110: a16b e13d 2954 c93c 9c08 a9bc 3539 cfbd
00000120: c5e8 c4be 169e d23c 3910 36bd 0ac7 183c
00000130: 4279 73bd a812 88bc 37ea 92be eed1 783d
00000140: 6b83 cfbc 1281 173e f300 393d a1c9 edbc
00000150: 9a92 c9bc f0d3 15be 679c d3bc 204f 4dbe
00000160: 9568 97bb 1137 81be b43c a83e 88a2 3e3e
00000170: 7429 a9bc bcd0 a93d ea20 adbc d98c 4d3c
00000180: d804 473e a894 0ebe d82d 4ebd 1157 983e
00000190: ce07 52bd 00b0 0abe 86de 0cbe d124 44bd
000001a0: 29c4 ae3d c768 9d3e cd36 81be 4c9e 86bd
000001b0: 0975 e0bd 83a4 633d 9856 a7bd 7c3b 8a3e
000001c0: aafd c33d fab8 443e d8e3 5fbd 31a5 74be
000001d0: 4dcb b1be 2dc9 523e a3b7 21bd 3c6c 57be
000001e0: 0871 99be 8b54 11be d336 8cbe 737e b1bd
000001f0: 92e2 bebd 645e d83d c548 99bd 64de bf3d
00000200: a03f 91bd 75e2 1ebe 882b 193e 097a 41be
00000210: 9e1b 89be 7703 5bbe 95c1 973d d848 863e
00000220: 23a9 3cbe cf26 9c3c 7a43 173e fe58 ad3d
00000230: 0dcc e03c 6c58 573e df3a 0cbe 5038 c53c
00000240: b2b8 afbd 887b a7bd 120d 80be 43e0 f5bb
00000250: 3b1d 873d 4b52 093e 55c5 d03d 032f 403d
00000260: e56e 4c3e c883 1a3e 2276 333d 4510 8fbe
00000270: db0c 6ebe 459c a0bd bd49 37be e1ed 59be
00000280: e78d cb3d a7a0 9d3c ff8f 6ebd d806 96be
00000290: 1522 a13c 0a4c 0fbd 6510 6fbe 74aa 0b3e
000002a0: cc4c 653e 5b14 ef3c fb97 b13e 3761 b0be
000002b0: 5923 bcbe b837 24bb 0676 fabd 8532 22be
000002c0: 25f3 9e3c 1f76 093e 8da0 a0bd da42 253d
000002d0: 3135 84be 7a7a c93c 09fc 14be 8689 9fbd
000002e0: c350 78be c1fa 88be 8943 14bd 4aed 5cbd
000002f0: b8da 893c ad87 203e 698e fcbd 68f3 d43d
00000300: b47e 293c d869 97be 8f8a 52be 89e3 9bbe
00000310: 607b 83be 3cf7 e7bd 459c d93d 3a98 603e
00000320: 313b 403e ca75 5b3b f2c0 f3bd a193 203e
00000330: e39c d0bd 98a3 a8bd 56b3 8bbd d18f b8bd
00000340: 8dc2 34bd 7048 ec3c 2762 84be dc11 c9bd
00000350: 3f0f 11be 5b91 463c 7874 53be a74d afbd
00000360: 9e6a c73c c4d1 c03d d4f6 c8bd 3c25 a4be
00000370: a2fa 60be ffe0 9cbe 4868 11be a754 203e
00000380: c525 013d 77fd 613d 0d86 42be 50ab 85be
00000390: f81e 51bd 4ed7 1dbe 3946 78bd 8ab5 963d
000003a0: 2821 1a3d da30 653e 91db 66be 2ea0 e7bc
000003b0: 6f14 a03d 2590 5abd 98d4 cdbd d2b0 16be
000003c0: 0227 84be 31c4 2abe af44 393e 2362 3bbd
000003d0: 5269 b1be 6db4 08bd 35f6 943d f894 83bd
000003e0: 8b94 a53e a47a 0cbe 68ce bc3a 3a07 20be
000003f0: d423 a0bd fc1d 5cbe 12d8 f3bd 2c52 363e

linear2.weight f4 [3, 256]
-0.16185579 -0.04274519 0.093358606 -0.22599962 0.14196515 0.25403523 -0.09599915 0.029058723
0.21535388 -0.037055865 -0.1131156 -0.075186566 0.0005248493 0.08562959 0.0019132462 0.043058917
0.078102894 -0.15517402 0.15848368 -0.1431273 -0.20720331 -0.2238743 -0.11241111 -0.06521353
-0.10017196 0.14847966 -0.18674797 -0.05585681 -0.0025069732 0.009847994 0.1429654 -0.087771624
-0.12383559 0.098159954 0.21929562 -0.13229077 -0.09795843 0.27058217 0.1312372 0.046117503
-0.07128559 -0.08636366 -0.15681264 0.10898818 0.035432912 0.09178475 -0.07404973 -0.21817094
-0.008359919 -0.117032036 0.22417462 -0.12925999 -0.085089296 -0.17453723 -0.16450647 0.12938617
-0.09823145 0.0284552 0.14077672 -0.06353854 0.16711286 0.028833227 0.25956658 -0.07364598
-0.28475147 0.04117815 -0.12588903 -0.03760513 0.039284743 -0.08249306 -0.1292305 0.01318182
-0.029414957 -0.104042366 0.13754041 -0.058731396 0.19680767 0.07455847 -0.11543193 -0.18205896
-0.17383125 -0.15846692 -0.103427306 0.037445046 -0.080811165 0.019104097 -0.10715903 -0.0045167054
-0.094164714 -0.042670112 0.11198714 0.0039182557 -0.07892762 -0.063099064 -0.26219144 0.025038812
0.14681461 0.18109308 0.029028293 0.116704375 0.115562476 -0.16167675 -0.017955635 -0.05833104
-0.20322435 0.20793428 -0.008597143 0.23512097 0.15894917 -0.109899394 -0.2659251 -0.12904476
-0.0010487166 -0.13667294 -0.11087689 -0.33021975 0.009994701 0.16979675 -0.054422516 -0.052587718
-0.0006134678 -0.34163156 0.08630142 0.19915426 -0.25151318 0.035414763 0.15225075 -0.20871101
-0.16586396 -0.26967764 0.15332904 -0.18711719 -0.020005183 -0.13200702 -0.05900577 -0.048518285
-0.02013526 -0.092755176 -0.0003311068 -0.1242494 -0.03639464 0.23063283 -0.35737175 -0.0031318935
-0.13653442 -0.075551875 0.021480108 0.016626574 -0.025548482 -0.10703462 -0.060443543 0.057369538
0.13315912 -0.13005246 0.048362717 0.0326946 0.09932402 -0.06707272 -0.18971643 -0.014514612
-0.032239236 0.064565904 -0.10586874 -0.060642913 -0.1697698 -0.14251718 -0.14251034 0.16047361
0.14139539 0.21101274 0.15206446 -0.0048013283 0.067904405 0.017413462 -0.10985756 0.005575608
-0.14490573 -0.15924524 0.1796631 -0.12749024 -0.130376 0.088286586 -0.25095794 -0.14277928
-0.18529285 -0.04306686 -0.068495825 -0.119823664 -0.1411289 -0.0263987 -0.02477606 -0.045330815
-0.013489832 -0.005647798 -0.11168075 -0.015089633 -0.40579543 0.008577721 0.033235386 0.12378252
0.30501476 -0.09627661 -0.13988073 0.04568576 -0.19438103 -0.3130792 -0.24402723 0.18101197
0.14120224 -0.16983412 -0.1454822 0.15160719 -0.108940646 -0.07979949 -0.33163008 0.018625643
-0.1706691 0.11736842 0.11182536 0.0027287556 -0.07621361 0.052777942 -0.06924102 0.027020272
0.23359574 0.014793739 -0.034967482 -0.0754582 -0.15964371 0.06550031 -0.21611616 0.024982901
-0.027266063 -0.06697254 -0.22346625 -0.06958706 0.21236429 -0.22581802 -0.1838516 0.00536076
0.06471873 -0.052417338 -0.020218305 -0.0114135435 -0.07611085 -0.09585782 -0.123983264 0.030357003
0.05044856 -0.22635679 -0.09976958 -0.2664903 0.06452549 0.19911811 -0.12127719 -0.1354627
00000000: 86bd 25be 9515 2fbd cc32 bf3d 726c 67be
00000010: 505f 113e e810 823e 349b c4bd 8f0c ee3c
00000020: ba85 5c3e e4c7 17bd 27a9 e7bd 6afb 99bd
00000030: 0a96 093a 915e af3d e4c5 fa3a 8c5e 303d
00000040: 69f4 9f3d f0e5 1ebe 8c49 223e f78f 12be
00000050: 1b2d 54be 4e3f 65be cc37 e6bd ac8e 85bd
00000060: f526 cdbd 0d0b 183e dc3a 3fbe 1cca 64bd
00000070: 084c 24bb 7b59 213c 8665 123e 9cc1 b3bd
00000080: 849d fdbd 1608 c93d 088f 603e 3b77 07be
00000090: 6e9e c8bd bf89 8a3e 0b63 063e b5e5 3c3d
000000a0: 2efe 91bd 6edf b0bd 7e93 20be 3235 df3d
000000b0: 1a22 113d a5f9 bb3d 63a7 97bd 3468 5fbe
000000c0: 0bf8 08bc 7eae efbd 088e 653e bb5c 04be
000000d0: 4c43 aebd e3b9 32be 6274 28be cf7d 043e
000000e0: 922d c9bd e11a e93c c627 103e 7e20 82bd
000000f0: a21f 2b3e a933 ec3c e9e5 843e b4d3 96bd
00000100: f2ca 91be 6baa 283d 0ee9 00be d607 1abd
00000110: 0ae9 203d 1ff2 a8bd 0055 04be 8ff8 573c
00000120: a3f7 f0bc 2a14 d5bd 65d7 0c3e 5590 70bd
00000130: f387 493e 1cb2 983d 9367 ecbd aa6d 3abe
00000140: d200 32be 2745 22be b2d1 d3bd fa5f 193d
00000150: 5380 a5bd 3280 9c3c 3276 dbbd df00 94bb
00000160: 6ed9 c0bd dbc6 2ebd 8359 e53d b664 803b
00000170: cea4 a1bd 153a 81bd f53d 86be 321e cd3c
00000180: 9256 163e 7770 393e becc ed3c b402 ef3d
00000190: 05ac ec3d 978e 25be b217 93bc 87ec 6ebd
000001a0: 0b1a 50be b9ec 543e 08db 0cbc 8dc3 703e
000001b0: 92c3 223e ef12 e1bd 5627 88be 4f24 04be
000001c0: 1775 89ba fef3 0bbe 6c13 e3bd 9012 a9be
000001d0: d0c0 233c 33df 2d3e 25ea 5ebd 3866 57bd
000001e0: 21d1 20ba 55ea aebe cdbe b03d 18ef 4b3e
000001f0: 56c6 80be 120f 113d 9fe7 1b3e 57b8 55be
00000200: 3ed8 29be 3013 8abe 4a02 1d3e a69b 3fbe
00000210: e9e1 a3bc d92c 07be 09b0 71bd 1cbb 46bd
00000220: b3f2 a4bc 6df6 bdbd 6798 adb9 7876 febd
00000230: 8c12 15bd 032b 6c3e 6ef9 b6be 7440 4dbb
00000240: aecf 0bbe f1ba 9abd 0df7 af3c 7434 883c
00000250: 0d4b d1bc f834 dbbd a693 77bd 52fc 6a3d
00000260: dd5a 083e 792c 05be fc17 463d c6ea 053d
00000270: 646a cb3d 6c5d 89bd 0645 42be b2ce 6dbc
00000280: 4a0d 04bd 213b 843d b6d1 d8bd b464 78bd
00000290: 22d8 2dbe 06f0 11be 3bee 11be 3253 243e
000002a0: f4c9 103e b913 583e c9b6 1b3e 7654 9dbb
000002b0: 7711 8b3d ada6 8e3c 00fd e0bd 97b3 b63b
000002c0: 2b62 14be 2f11 23be 9bf9 373e cd8c 02be
000002d0: 4981 05be 99cf b43d 8f7d 80be bb34 12be
000002e0: 69bd 3dbe e066 30bd 8a47 8cbd 1c66 f5bd
000002f0: 1884 10be 1642 d8bc 2af7 cabc ceac 39bd
00000300: 7504 5dbc 2a11 b9bb e1b8 e4bd 823a 77bc
00000310: 6bc4 cfbe 9289 0c3c d421 083d b181 fd3d
00000320: e52a 9c3e ac2c c5bd e53c 0fbe fe20 3b3d
00000330: d20b 47be eb4b a0be 46e2 79be 345b 393e
00000340: 5297 103e ffe8 2dbe 49f9 14be ea3e 1b3e
00000350: 461c dfbd ea6d a3bd 6bcb a9be ce94 983c
00000360: e1c3 2ebe db5e f03d b204 e53d ecd4 323b
00000370: e215 9cbd af2d 583d 3cce 8dbd 9e59 dd3c
00000380: b933 6f3e 7061 723c 103a 0fbd d489 9abd
00000390: a479 23be 0725 863d 8e4d 5dbe f1a8 cc3c
000003a0: 145d dfbc e628 89bd 56d4 64be a983 8ebd
000003b0: 0676 593e d73c 67be 9843 3cbe 50a9 af3b
000003c0: 418b 843d 90b3 56bd dca0 a5bc dfff 3abc
000003d0: 01e0 9bbd 1b51 c4bd f0ea fdbd 40af f83c
000003e0: 26a3 4e3d 13ca 67be fe53 ccbd 6b71 88be
000003f0: f125 843d 9ee5 4b3e 2d60 f8bd bcb6 0abe

linear2.bias f4 [3]
0.09850718 0.01419662 -0.06485468
00000000: 22be c93d f198 683c 88d2 84bd
